best_enhanced_model1.pth (torch, 7314 bytes, 18 tensors)

cpe.pe.weight f4 [3, 1, 3, 3]
000000 dc 52 b7 3d 9b 64 90 be 83 c2 63 be 38 fd 30 be
       0.08951351 -0.28201756 -0.22242169 -0.17284095
000010 3b a7 91 be 2d 70 87 3e 00 a6 60 3c 14 49 f3 3d
       -0.284479 0.2645277 0.0137114525 0.11879173
000020 3e fe 12 be fe fc 90 be 30 82 83 3d d3 e4 2b be
       -0.14354798 -0.28318018 0.06421316 -0.16786508
000030 96 7c 11 be 14 35 93 3d ab e0 89 be 66 90 86 be
       -0.14207682 0.07187858 -0.2692922 -0.26282042
000040 86 3b 4c 3e 78 bd 75 3d fc d6 80 bd a1 c2 a2 3e
       0.19944581 0.059995145 -0.06291005 0.31789115
000050 7c 06 96 3d 2a b0 9c be 08 06 00 bd 3b 33 1e be
       0.073254555 -0.30603153 -0.03125575 -0.1544923
000060 7e 42 67 3e b0 89 91 3d 23 b6 44 be
       0.22583959 0.0710634 -0.19210105

cpe.pe.bias f4 [3]
000000 75 d3 a9 3e 84 e4 dd 3d 9b 0d 8b 3e
       0.3316914 0.108346015 0.27158818

gcn.fc1.0.weight f4 [3, 3, 1, 1]
000000 88 f5 55 3e 74 4d 56 3e ac 39 c9 be 70 13 1a 3d
       0.20894444 0.20927984 -0.39301813 0.037616193
000010 fe cc 95 3e 54 c5 01 3e 10 e6 d1 be 99 9c 0b bf
       0.2925796 0.12672931 -0.40995836 -0.54535824
000020 7c 21 17 be
       -0.14758867

gcn.fc1.0.bias f4 [3]
000000 0e a1 02 3f 40 83 a9 be 44 78 a3 bd
       0.51027 -0.33107948 -0.07981923

gcn.fc1.1.weight f4 [3]
000000 00 00 80 3f 00 00 80 3f 00 00 80 3f
       1.0 1.0 1.0

gcn.fc1.1.bias f4 [3]
000000 00 00 00 00 00 00 00 00 00 00 00 00
       0.0 0.0 0.0

gcn.fc1.1.running_mean f4 [3]
000000 7a 1a 1a 3f 23 e5 d7 be ce e4 9e 3d
       0.6019665 -0.42167005 0.07758485

gcn.fc1.1.running_var f4 [3]
000000 31 8f 74 3d dd 86 a6 3d 3d f9 b9 3e
       0.05970687 0.08131192 0.36322966

gcn.graph_conv.gconv.nn.0.weight f4 [6, 2, 1, 1]
000000 59 14 28 bf fb ef 93 bf 50 34 15 40 a1 3a 60 bf
       -0.6565605 -1.1557611 2.331318 -0.8758946
000010 2a 95 df be 19 43 b6 be 0d a4 83 be 37 7d 2f 3f
       -0.4366849 -0.35598066 -0.25711098 0.6855044
000020 07 96 75 bf 0f a5 64 be f8 c7 15 3f bb 6b 43 bf
       -0.9593205 -0.2232859 0.58508253 -0.7633626

gcn.graph_conv.gconv.nn.0.bias f4 [6]
000000 00 00 00 00 00 00 00 00 00 00 00 00 00 00 00 00
       0.0 0.0 0.0 0.0
000010 00 00 00 00 00 00 00 00
       0.0 0.0

gcn.fc2.0.weight f4 [3, 6, 1, 1]
000000 f0 e7 e5 3d 33 bf 99 be a0 ef 83 3d 1a c7 a8 3e
       0.11225879 -0.30028686 0.06442189 0.32964402
000010 2c 12 98 3d b2 cb a8 3e ec c2 ea bd 14 a2 9c be
       0.07425341 0.32967907 -0.1146296 -0.30592406
000020 c5 39 93 be 30 2f 76 3e a0 04 c2 bc dc 3f 8f be
       -0.28755012 0.24041438 -0.023683846 -0.27978408
000030 b0 c4 f2 bd ac 50 cb bd 58 38 e2 3d 70 8a 8e be
       -0.118539214 -0.09927496 0.11045903 -0.27839994
000040 48 db 10 bd 66 49 8b be
       -0.035365373 -0.27204436

gcn.fc2.0.bias f4 [3]
000000 38 6a 59 3e 1a 41 01 be ea cf a5 3e
       0.21231925 -0.1262249 0.32385188

gcn.fc2.1.weight f4 [3]
000000 00 00 80 3f 00 00 80 3f 00 00 80 3f
       1.0 1.0 1.0

gcn.fc2.1.bias f4 [3]
000000 00 00 00 00 00 00 00 00 00 00 00 00
       0.0 0.0 0.0

gcn.fc2.1.running_mean f4 [3]
000000 02 fa 53 3e f8 31 3a bf ec a3 5e bd
       0.20700839 -0.72732496 -0.054355547

gcn.fc2.1.running_var f4 [3]
000000 4a 08 00 3f 7e fe 46 3e 6a bd 52 3d
       0.5001265 0.19433019 0.05145017

fc.weight f4 [4, 3]
000000 15 4d 84 be 0d 27 87 be a8 df c1 bd 48 88 78 3e
       -0.2584006 -0.2639698 -0.09466487 0.24270737
000010 5c a9 30 3e 68 25 ee 3e f8 4e f1 3e 54 ed f8 3e
       0.17252105 0.46512914 0.4713056 0.48618567
000020 0a e3 15 be c0 e0 6c bc ee 2c 06 bf 00 7e ad bc
       -0.1463739 -0.014457881 -0.5241231 -0.021178246

fc.bias f4 [4]
000000 a6 cc c7 3e de 35 70 be b0 b3 66 3d e0 3d 6f 3d
       0.39023322 -0.23458049 0.056323707 0.058408618
